…
      "Downloading: \"https://download.pytorch.org/models/resnet18-f37072fd.pth\" to /root/.cache/torch/hub/checkpoints/resnet18-f37072fd.pth\n"
     ]
    },
    {
     "data": {
      "application/vnd.jupyter.widget-view+json": {
       "model_id": "b01c39431be846fb9fdfee088209a007",
       "version_major": 2,
       "version_minor": 0
      },
      "text/plain": [
       "  0%|          | 0.00/44.7M [00:00<?, ?B/s]"
      ]
     },
     "metadata": {},
     "output_type": "display_data"
    },
    {
     "name": "stdout",
     "output_type": "stream",
     "text": [
      "ResNet(\n",
      "  (conv1): Conv2d(3, 64, kernel_size=(7, 7), stride=(2, 2), padding=(3, 3), bias=False)\n",
      "  (bn1): BatchNorm2d(64, eps=1e-05, momentum=0.1, affine=True, track_running_stats=True)\n",
      "  (relu): ReLU(inplace=True)\n",
      "  (maxpool): MaxPool2d(kernel_size=3, stride=2, padding=1, dilation=1, ceil_mode=False)\n",
      "  (layer1): Sequential(\n",
      "    (0): BasicBlock(\n",
      "      (conv1): Conv2d(64, 64, kernel_size=(3, 3), stride=(1, 1), padding=(1, 1), bias=False)\n",
      "      (bn1): BatchNorm2d(64, eps=1e-05, momentum=0.1, affine=True, track_running_stats=True)\n",
      "      (relu): ReLU(inplace=True)\n",
      "      (conv2): Conv2d(64, 64, kernel_size=(3, 3), stride=(1, 1), padding=(1, 1), bias=False)\n",
      "      (bn2): BatchNorm2d(64, eps=1e-05, momentum=0.1, affine=True, track_running_stats=True)\n",
      "    )\n",
      "    (1): BasicBlock(\n",
      "      (conv1): Conv2d(64, 64, kernel_size=(3, 3), stride=(1, 1), padding=(1, 1), bias=False)\n",
      "      (bn1): BatchNorm2d(64, eps=1e-05, momentum=0.1, affine=True, track_running_stats=True)\n",
      "      (relu): ReLU(inplace=True)\n",
      "      (conv2): Conv2d(64, 64, kernel_size=(3, 3), stride=(1, 1), padding=(1, 1), bias=False)\n",
      "      (bn2): BatchNorm2d(64, eps=1e-05, momentum=0.1, affine=True, track_running_stats=True)\n",
      "    )\n",
      "  )\n",
      "  (layer2): Sequential(\n",
      "    (0): BasicBlock(\n",
      "      (conv1): Conv2d(64, 128, kernel_size=(3, 3), stride=(2, 2), padding=(1, 1), bias=False)\n",
      "      (bn1): BatchNorm2d(128, eps=1e-05, momentum=0.1, affine=True, track_running_stats=True)\n",
      "      (relu): ReLU(inplace=True)\n",
      "      (conv2): Conv2d(128, 128, kernel_size=(3, 3), stride=(1, 1), padding=(1, 1), bias=False)\n",
      "      (bn2): BatchNorm2d(128, eps=1e-05, momentum=0.1, affine=True, track_running_stats=True)\n",
      "      (downsample): Sequential(\n",
      "        (0): Conv2d(64, 128, kernel_size=(1, 1), stride=(2, 2), bias=False)\n",
      "        (1): BatchNorm2d(128, eps=1e-05, momentum=0.1, affine=True, track_running_stats=True)\n",
      "      )\n",
      "    )\n",
      "    (1): BasicBlock(\n",
      "      (conv1): Conv2d(128, 128, kernel_size=(3, 3), stride=(1, 1), padding=(1, 1), bias=False)\n",
      "      (bn1): BatchNorm2d(128, eps=1e-05, momentum=0.1, affine=True, track_running_stats=True)\n",
      "      (relu): ReLU(inplace=True)\n",
      "      (conv2): Conv2d(128, 128, kernel_size=(3, 3), stride=(1, 1), padding=(1, 1), bias=False)\n",
      "      (bn2): BatchNorm2d(128, eps=1e-05, momentum=0.1, affine=True, track_running_stats=True)\n",
      "    )\n",
      "  )\n",
      "  (layer3): Sequential(\n",
      "    (0): BasicBlock(\n",
      "      (conv1): Conv2d(128, 256, kernel_size=(3, 3), stride=(2, 2), padding=(1, 1), bias=False)\n",
      "      (bn1): BatchNorm2d(256, eps=1e-05, momentum=0.1, affine=True, track_running_stats=True)\n",
      "      (relu): ReLU(inplace=True)\n",
      "      (conv2): Conv2d(256, 256, kernel_size=(3, 3), stride=(1, 1), padding=(1, 1), bias=False)\n",
      "      (bn2): BatchNorm2d(256, eps=1e-05, momentum=0.1, affine=True, track_running_stats=True)\n",
      "      (downsample): Sequential(\n",
      "        (0): Conv2d(128, 256, kernel_size=(1, 1), stride=(2, 2), bias=False)\n",
      "        (1): BatchNorm2d(256, eps=1e-05, momentum=0.1, affine=True, track_running_stats=True)\n",
      "      )\n",
      "    )\n",
      "    (1): BasicBlock(\n",
      "      (conv1): Conv2d(256, 256, kernel_size=(3, 3), stride=(1, 1), padding=(1, 1), bias=False)\n",
      "      (bn1): BatchNorm2d(256, eps=1e-05, momentum=0.1, affine=True, track_running_stats=True)\n",
      "      (relu): ReLU(inplace=True)\n",
      "      (conv2): Conv2d(256, 256, kernel_size=(3, 3), stride=(1, 1), padding=(1, 1), bias=False)\n",
      "      (bn2): BatchNorm2d(256, eps=1e-05, momentum=0.1, affine=True, track_running_stats=True)\n",
      "    )\n",
      "  )\n",
      "  (layer4): Sequential(\n",
      "    (0): BasicBlock(\n",
      "      (conv1): Conv2d(256, 512, kernel_size=(3, 3), stride=(2, 2), padding=(1, 1), bias=False)\n",
      "      (bn1): BatchNorm2d(512, eps=1e-05, momentum=0.1, affine=True, track_running_stats=True)\n",
      "      (relu): ReLU(inplace=True)\n",
      "      (conv2): Conv2d(512, 512, kernel_size=(3, 3), stride=(1, 1), padding=(1, 1), bias=False)\n",
      "      (bn2): BatchNorm2d(512, eps=1e-05, momentum=0.1, affine=True, track_running_stats=True)\n",
      "      (downsample): Sequential(\n",
      "        (0): Conv2d(256, 512, kernel_size=(1, 1), stride=(2, 2), bias=False)\n",
      "        (1): BatchNorm2d(512, eps=1e-05, momentum=0.1, affine=True, track_running_stats=True)\n",
      "      )\n",
      "    )\n",
      "    (1): BasicBlock(\n",
      "      (conv1): Conv2d(512, 512, kernel_size=(3, 3), stride=(1, 1), padding=(1, 1), bias=False)\n",
      "      (bn1): BatchNorm2d(512, eps=1e-05, momentum=0.1, affine=True, track_running_stats=True)\n",
      "      (relu): ReLU(inplace=True)\n",
      "      (conv2): Conv2d(512, 512, kernel_size=(3, 3), stride=(1, 1), padding=(1, 1), bias=False)\n",
      "      (bn2): BatchNorm2d(512, eps=1e-05, momentum=0.1, affine=True, track_running_stats=True)\n",
      "    )\n",
      "  )\n",
      "  (avgpool): AdaptiveAvgPool2d(output_size=(1, 1))\n",
      "  (fc): Linear(in_features=512, out_features=1000, bias=True)\n",
      ")\n"
     ]
    }
   ],
   "source": [
    "model =  models.resnet18(pretrained=True).to(device)\n",
    "print(model)"
   ]
  },
  {
   "cell_type": "code",
   "execution_count": 9,
   "id": "8dbe6c06",
   "metadata": {
    "execution": {
     "iopub.execute_input": "2022-08-02T19:59:36.311196Z",
     "iopub.status.busy": "2022-08-02T19:59:36.310781Z",
…
    "execution": {
     "iopub.execute_input": "2022-08-02T19:59:36.473271Z",
     "iopub.status.busy": "2022-08-02T19:59:36.472091Z",
     "iopub.status.idle": "2022-08-02T19:59:36.478484Z",
     "shell.execute_reply": "2022-08-02T19:59:36.477442Z"
    },
    "papermill": {
     "duration": 0.04501,
     "end_time": "2022-08-02T19:59:36.481147",
     "exception": false,
     "start_time": "2022-08-02T19:59:36.436137",
     "status": "completed"
    },
    "tags": []
   },
   "outputs": [
    {
     "name": "stdout",
     "output_type": "stream",
     "text": [
      "ResNet(\n",
      "  (conv1): Conv2d(3, 64, kernel_size=(7, 7), stride=(2, 2), padding=(3, 3), bias=False)\n",
      "  (bn1): BatchNorm2d(64, eps=1e-05, momentum=0.1, affine=True, track_running_stats=True)\n",
      "  (relu): ReLU(inplace=True)\n",
      "  (maxpool): MaxPool2d(kernel_size=3, stride=2, padding=1, dilation=1, ceil_mode=False)\n",
      "  (layer1): Sequential(\n",
      "    (0): BasicBlock(\n",
      "      (conv1): Conv2d(64, 64, kernel_size=(3, 3), stride=(1, 1), padding=(1, 1), bias=False)\n",
      "      (bn1): BatchNorm2d(64, eps=1e-05, momentum=0.1, affine=True, track_running_stats=True)\n",
      "      (relu): ReLU(inplace=True)\n",
      "      (conv2): Conv2d(64, 64, kernel_size=(3, 3), stride=(1, 1), padding=(1, 1), bias=False)\n",
      "      (bn2): BatchNorm2d(64, eps=1e-05, momentum=0.1, affine=True, track_running_stats=True)\n",
      "    )\n",
      "    (1): BasicBlock(\n",
      "      (conv1): Conv2d(64, 64, kernel_size=(3, 3), stride=(1, 1), padding=(1, 1), bias=False)\n",
      "      (bn1): BatchNorm2d(64, eps=1e-05, momentum=0.1, affine=True, track_running_stats=True)\n",
      "      (relu): ReLU(inplace=True)\n",
      "      (conv2): Conv2d(64, 64, kernel_size=(3, 3), stride=(1, 1), padding=(1, 1), bias=False)\n",
      "      (bn2): BatchNorm2d(64, eps=1e-05, momentum=0.1, affine=True, track_running_stats=True)\n",
      "    )\n",
      "  )\n",
      "  (layer2): Sequential(\n",
      "    (0): BasicBlock(\n",
      "      (conv1): Conv2d(64, 128, kernel_size=(3, 3), stride=(2, 2), padding=(1, 1), bias=False)\n",
      "      (bn1): BatchNorm2d(128, eps=1e-05, momentum=0.1, affine=True, track_running_stats=True)\n",
      "      (relu): ReLU(inplace=True)\n",
      "      (conv2): Conv2d(128, 128, kernel_size=(3, 3), stride=(1, 1), padding=(1, 1), bias=False)\n",
      "      (bn2): BatchNorm2d(128, eps=1e-05, momentum=0.1, affine=True, track_running_stats=True)\n",
      "      (downsample): Sequential(\n",
      "        (0): Conv2d(64, 128, kernel_size=(1, 1), stride=(2, 2), bias=False)\n",
      "        (1): BatchNorm2d(128, eps=1e-05, momentum=0.1, affine=True, track_running_stats=True)\n",
      "      )\n",
      "    )\n",
      "    (1): BasicBlock(\n",
      "      (conv1): Conv2d(128, 128, kernel_size=(3, 3), stride=(1, 1), padding=(1, 1), bias=False)\n",
      "      (bn1): BatchNorm2d(128, eps=1e-05, momentum=0.1, affine=True, track_running_stats=True)\n",
      "      (relu): ReLU(inplace=True)\n",
      "      (conv2): Conv2d(128, 128, kernel_size=(3, 3), stride=(1, 1), padding=(1, 1), bias=False)\n",
      "      (bn2): BatchNorm2d(128, eps=1e-05, momentum=0.1, affine=True, track_running_stats=True)\n",
      "    )\n",
      "  )\n",
      "  (layer3): Sequential(\n",
      "    (0): BasicBlock(\n",
      "      (conv1): Conv2d(128, 256, kernel_size=(3, 3), stride=(2, 2), padding=(1, 1), bias=False)\n",
      "      (bn1): BatchNorm2d(256, eps=1e-05, momentum=0.1, affine=True, track_running_stats=True)\n",
      "      (relu): ReLU(inplace=True)\n",
      "      (conv2): Conv2d(256, 256, kernel_size=(3, 3), stride=(1, 1), padding=(1, 1), bias=False)\n",
      "      (bn2): BatchNorm2d(256, eps=1e-05, momentum=0.1, affine=True, track_running_stats=True)\n",
      "      (downsample): Sequential(\n",
      "        (0): Conv2d(128, 256, kernel_size=(1, 1), stride=(2, 2), bias=False)\n",
      "        (1): BatchNorm2d(256, eps=1e-05, momentum=0.1, affine=True, track_running_stats=True)\n",
      "      )\n",
      "    )\n",
      "    (1): BasicBlock(\n",
      "      (conv1): Conv2d(256, 256, kernel_size=(3, 3), stride=(1, 1), padding=(1, 1), bias=False)\n",
      "      (bn1): BatchNorm2d(256, eps=1e-05, momentum=0.1, affine=True, track_running_stats=True)\n",
      "      (relu): ReLU(inplace=True)\n",
      "      (conv2): Conv2d(256, 256, kernel_size=(3, 3), stride=(1, 1), padding=(1, 1), bias=False)\n",
      "      (bn2): BatchNorm2d(256, eps=1e-05, momentum=0.1, affine=True, track_running_stats=True)\n",
      "    )\n",
      "  )\n",
      "  (layer4): Sequential(\n",
      "    (0): BasicBlock(\n",
      "      (conv1): Conv2d(256, 512, kernel_size=(3, 3), stride=(2, 2), padding=(1, 1), bias=False)\n",
      "      (bn1): BatchNorm2d(512, eps=1e-05, momentum=0.1, affine=True, track_running_stats=True)\n",
      "      (relu): ReLU(inplace=True)\n",
      "      (conv2): Conv2d(512, 512, kernel_size=(3, 3), stride=(1, 1), padding=(1, 1), bias=False)\n",
      "      (bn2): BatchNorm2d(512, eps=1e-05, momentum=0.1, affine=True, track_running_stats=True)\n",
      "      (downsample): Sequential(\n",
      "        (0): Conv2d(256, 512, kernel_size=(1, 1), stride=(2, 2), bias=False)\n",
      "        (1): BatchNorm2d(512, eps=1e-05, momentum=0.1, affine=True, track_running_stats=True)\n",
      "      )\n",
      "    )\n",
      "    (1): BasicBlock(\n",
      "      (conv1): Conv2d(512, 512, kernel_size=(3, 3), stride=(1, 1), padding=(1, 1), bias=False)\n",
      "      (bn1): BatchNorm2d(512, eps=1e-05, momentum=0.1, affine=True, track_running_stats=True)\n",
      "      (relu): ReLU(inplace=True)\n",
      "      (conv2): Conv2d(512, 512, kernel_size=(3, 3), stride=(1, 1), padding=(1, 1), bias=False)\n",
      "      (bn2): BatchNorm2d(512, eps=1e-05, momentum=0.1, affine=True, track_running_stats=True)\n",
      "    )\n",
      "  )\n",
      "  (avgpool): AdaptiveAvgPool2d(output_size=(1, 1))\n",
      "  (fc): Dc_model(\n",
      "    (linear1): Linear(in_features=512, out_features=120, bias=True)\n",
      "    (linear2): Linear(in_features=120, out_features=2, bias=True)\n",
      "  )\n",
      ")\n"
     ]
    }
   ],
   "source": [
    "model.fc = model_\n",
    "print(model)"
   ]
  },
  {
   "cell_type": "code",
   "execution_count": 12,
   "id": "2f788d8f",
   "metadata": {
    "execution": {
     "iopub.execute_input": "2022-08-02T19:59:36.552380Z",
     "iopub.status.busy": "2022-08-02T19:59:36.550948Z",
     "iopub.status.idle": "2022-08-02T19:59:36.558067Z",
…
